physical_devices------------- 1
Setting up the network parameters...
Desigining the network...
Model: "model"
_________________________________________________________________
 Layer (type)                Output Shape              Param #   
=================================================================
 input_1 (InputLayer)        [(None, 1000, 1000, 1)]   0         
                                                                 
 conv2d (Conv2D)             (None, 250, 250, 128)     3328      
                                                                 
 conv2d_1 (Conv2D)           (None, 245, 245, 128)     589952    
                                                                 
 max_pooling2d (MaxPooling2D  (None, 49, 49, 128)      0         
 )                                                               
                                                                 
 conv2d_2 (Conv2D)           (None, 45, 45, 1)         3201      
                                                                 
 max_pooling2d_1 (MaxPooling  (None, 9, 9, 1)          0         
 2D)                                                             
                                                                 
 up_sampling2d (UpSampling2D  (None, 45, 45, 1)        0         
 )                                                               
                                                                 
 conv2d_transpose (Conv2DTra  (None, 49, 49, 128)      3328      
 nspose)                                                         
                                                                 
 up_sampling2d_1 (UpSampling  (None, 245, 245, 128)    0         
 2D)                                                             
                                                                 
 conv2d_transpose_1 (Conv2DT  (None, 250, 250, 128)    589952    
 ranspose)                                                       
                                                                 
 conv2d_transpose_2 (Conv2DT  (None, 1000, 1000, 1)    129       
 ranspose)                                                       
                                                                 
=================================================================
Total params: 1,189,890
Trainable params: 1,189,890
Non-trainable params: 0
_________________________________________________________________
Epoch 1/20
  1/925 [..............................]
…
